…
pool2d(output, 4) # img shape 1/4\n        output = output.view(output.size(0), -1) # FC Layer\n        return output\n\n\ndevice = torch.device(\"cuda:0\" if torch.cuda.is_available() else \"cpu\")\n\ndef ResNet18():\n    return ResNet(BasicBlock, [2,2,2,2])\n\nnet_t = ResNet18()\nnet_t = net_t.to(device)\nsummary(net_t, input_size =(3,32,32), device = device.type)\n\n----------------------------------------------------------------\n        Layer (type)               Output Shape         Param #\n================================================================\n            Conv2d-1           [-1, 64, 32, 32]           1,728\n       BatchNorm2d-2           [-1, 64, 32, 32]             128\n            Conv2d-3           [-1, 64, 32, 32]          36,864\n       BatchNorm2d-4           [-1, 64, 32, 32]             128\n            Conv2d-5           [-1, 64, 32, 32]          36,864\n       BatchNorm2d-6           [-1, 64, 32, 32]             128\n        BasicBlock-7           [-1, 64, 32, 32]               0\n            Conv2d-8           [-1, 64, 32, 32]          36,864\n       BatchNorm2d-9           [-1, 64, 32, 32]             128\n           Conv2d-10           [-1, 64, 32, 32]          36,864\n      BatchNorm2d-11           [-1, 64, 32, 32]             128\n       BasicBlock-12           [-1, 64, 32, 32]               0\n           Conv2d-13          [-1, 128, 16, 16]          73,728\n      BatchNorm2d-14          [-1, 128, 16, 16]             256\n           Conv2d-15          [-1, 128, 16, 16]         147,456\n      BatchNorm2d-16          [-1, 128, 16, 16]             256\n           Conv2d-17          [-1, 128, 16, 16]          73,728\n      BatchNorm2d-18          [-1, 128, 16, 16]             256\n       BasicBlock-19          [-1, 128, 16, 16]               0\n           Conv2d-20          [-1, 128, 16, 16]         147,456\n      BatchNorm2d-21          [-1, 128, 16, 16]             256\n           Conv2d-22          [-1, 128, 16, 16]         147,456\n      BatchNorm2d-23          [-1, 128, 16, 16]             256\n       BasicBlock-24          [-1, 128, 16, 16]               0\n           Conv2d-25            [-1, 256, 8, 8]         294,912\n      BatchNorm2d-26            [-1, 256, 8, 8]             512\n           Conv2d-27            [-1, 256, 8, 8]         589,824\n      BatchNorm2d-28            [-1, 256, 8, 8]             512\n           Conv2d-29            [-1, 256, 8, 8]         294,912\n      BatchNorm2d-30            [-1, 256, 8, 8]             512\n       BasicBlock-31            [-1, 256, 8, 8]               0\n           Conv2d-32            [-1, 256, 8, 8]         589,824\n      BatchNorm2d-33            [-1, 256, 8, 8]             512\n           Conv2d-34            [-1, 256, 8, 8]         589,824\n      BatchNorm2d-35            [-1, 256, 8, 8]             512\n       BasicBlock-36            [-1, 256, 8, 8]               0\n           Conv2d-37            [-1, 512, 4, 4]       1,179,648\n      BatchNorm2d-38            [-1, 512, 4, 4]           1,024\n           Conv2d-39            [-1, 512, 4, 4]       2,359,296\n      BatchNorm2d-40            [-1, 512, 4, 4]           1,024\n           Conv2d-41            [-1, 512, 4, 4]       1,179,648\n      BatchNorm2d-42            [-1, 512, 4, 4]           1,024\n       BasicBlock-43            [-1, 512, 4, 4]               0\n           Conv2d-44            [-1, 512, 4, 4]       2,359,296\n      BatchNorm2d-45            [-1, 512, 4, 4]           1,024\n           Conv2d-46            [-1, 512, 4, 4]       2,359,296\n      BatchNorm2d-47            [-1, 512, 4, 4]           1,024\n       BasicBlock-48            [-1, 512, 4, 4]               0\n           Linear-49                   [-1, 10]           5,130\n================================================================\nTotal params: 12,550,218\nTrainable params: 12,550,218\nNon-trainable params: 0\n----------------------------------------------------------------\nInput size (MB): 0.01\nForward/backward pass size (MB): 11.25\nParams size (MB): 47.88\nEstimated Total Size (MB): 59.14\n---------------------------------------------------------------
…
tput\n    \n    def get_features(self, x):\n        output = F.relu(self.layer1(x))\n        output = F.relu(self.layer2(output))\n        output = F.relu(self.layer3(output))\n        output = F.avg_pool2d(output, 4)\n        output = output.view(output.size(0),-1)\n        return output\n\n\nnet_s =student_CNN()\nnet_s = net_s.to(device)\nsummary(net_s, (3,32,32))\n\n----------------------------------------------------------------\n        Layer (type)               Output Shape         Param #\n================================================================\n            Conv2d-1           [-1, 32, 16, 16]             864\n       BatchNorm2d-2           [-1, 32, 16, 16]              64\n            Conv2d-3             [-1, 64, 8, 8]          18,432\n       BatchNorm2d-4             [-1, 64, 8, 8]             128\n            Conv2d-5            [-1, 128, 8, 8]          73,728\n       BatchNorm2d-6            [-1, 128, 8, 8]             256\n            Linear-7                   [-1, 10]           5,130\n================================================================\nTotal params: 98,602\nTrainable params: 98,602\nNon-trainable params: 0\n----------------------------------------------------------------\nInput size (MB): 0.01\nForward/backward pass size (MB): 0.31\nParams size (MB): 0.38\nEstimated Total Size (MB): 0.70\n----------------------------------------------------------------\n\n\n\n\n
…
